convoy_control/models/vel_dyn_ctrl_pf_leaky_relu.pt (torch, 4726 bytes, 3 tensors)

layers.0.weight f4 [8, 2]
00000000: b84b 2cbf 5895 983f 0e8f f73e 921e b7bf
00000010: a8ee afbe 25cf 9fbf bb60 89bf 058d 62bf
00000020: 5442 983f b703 f13e f370 cbbe 8e4c c8bf
00000030: 2261 043f f3d0 acbe 1f8c 4abf b212 1cbe
-0.6730304 1.1920576 0.4835133 -1.4306204 -0.34361768 -1.248509 -1.0732645 -0.8849643
1.1895242 0.47073147 -0.3973461 -1.5648363 0.5171071 -0.33753166 -0.7912006 -0.15241507

layers.2.weight f4 [8, 8]
00000000: cfb2 47be 287f 973e cd68 703f 228a a83f
00000010: 31c8 0c3d 7ec5 913f 6c3c 823e 734e a63e
00000020: 3931 763f e25a 1ebf 7b02 e2be f11f 2b3e
00000030: 55f5 b3be 84aa 893b 86c9 97be 69ff 86bf
00000040: 4ac2 e2be 7512 b33e a1ec d6bd 4d9e cbbd
00000050: f262 033e 195e c43a 2e8e f73c 99a9 2f3f
00000060: 1c90 963e 46b0 8c3e d3b2 c3be f3dd 96be
00000070: 71d1 113f d72c 6abd c9c1 923e ce5a 98bf
00000080: df97 c4be e357 8b3e e91f 893f 9b7c 9e3f
00000090: 1bdf c2bd 1fb1 b13f c08f f83d dfb2 663e
000000a0: 01c9 1abe 5951 d83e bb6f 353f 7436 8a3f
000000b0: c010 ab3e 065e 4b3f 6d48 81be 013b 743d
000000c0: 4c64 08bf 4399 893d 2f53 0d3f 6f96 173f
000000d0: e64d 37be ea70 583f 12b3 d13e 02f7 0b3f
000000e0: b24f c8bd 7e0a 0dbe 7453 84bd a82c 553b
000000f0: f2bb a33f d8b0 74be f23a 403e ff2d 41bf
-0.19501804 0.295892 0.93909913 1.3167155 0.034370605 1.1388395 0.25436723 0.32481727
0.9616886 -0.61857426 -0.44142517 0.16711403 -0.3514811 0.0042012352 -0.29645938 -1.0546695
-0.44288856 0.3497502 -0.10494352 -0.09942303 0.12830713 0.0014981657 0.030219164 0.6861816
0.29406822 0.27478236 -0.3822237 -0.2946621 0.5696021 -0.05717167 0.2866347 -1.1902711
-0.38397118 0.2721549 1.0712863 1.2381777 -0.0951521 1.3882178 0.12136793 0.22529171
-0.1511574 0.42249563 0.7087361 1.0797868 0.33411217 0.79440343 -0.2525057 0.059626583
-0.5327804 0.067186855 0.55205053 0.5921392 -0.1790081 0.84547293 0.40956932 0.5467378
-0.09780826 -0.13773534 -0.0646123 0.0032527838 1.2791731 -0.23895586 0.18772486 -0.7546081

layers.4.weight f4 [1, 8]
00000000: 888b 73bf ac39 903f 31c5 47be 93cc 3b3f
00000010: 5cb3 a9bf 1563 66be 3fe2 a8bf 0797 993f
-0.9513478 1.12676 -0.19508816 0.7335903 -1.3257861 -0.22498734 -1.3194045 1.1999215
