convoy_control/models/vel_dyn_ctrl_pf_leaky_relu_5_vehs_encoded.pt (torch, 6018 bytes, 5 tensors)

layers.0.weight f4 [8, 7]
-1.1239421 -3.6436753 0.005325187 -0.195134 0.2403352 -0.112802155 0.04845943 -0.32372063
-0.49948975 0.38236648 0.22573091 0.25809723 0.02112974 -0.30244654 1.0148544 -1.3256243
0.16683145 0.25389668 0.2656867 -0.49779037 -0.7589962 0.89311224 -0.10330622 0.40397865
0.22169806 0.123189956 0.048401907 -0.008640966 0.93949056 1.4200207 -0.49173233 0.2933611
0.1894088 0.22427604 0.14525639 0.4120026 0.43168044 0.1907046 0.3204685 0.39826158
0.1768167 0.18941435 0.6342328 0.8753208 -0.81653917 -0.79092896 -0.2790475 0.40791473
0.77825797 -2.9547834 -4.50516 -0.17018421 -0.015466621 -0.08540975 -0.13770771 0.34543714
00000000: 56dd 8fbf fa31 69c0 e87e ae3b 35d1 47be
00000010: 6e1a 763e d104 e7bd 657d 463d b6be a5be
00000020: 1fbd ffbe 8ac5 c33e 0126 673e 5225 843e
00000030: 4718 ad3c 46da 9abe c0e6 813f 0fae a9bf
00000040: ddd5 2a3e bffe 813e 1608 883e 61de febe
00000050: 934d 42bf 01a3 643f 3692 d3bd 4ad6 ce3e
00000060: d104 633e 044b fc3d 1441 463d d792 0dbc
00000070: 7482 703f 3dc3 b53f 57c4 fbbe 6d33 963e
00000080: 61f4 413e 9ea8 653e 17be 143e 01f2 d23e
00000090: 3805 dd3e 1148 433e 7214 a43e f1e8 cb3e
000000a0: 700f 353e d6f5 413e 155d 223f 0615 603f
000000b0: b608 51bf 527a 4abf 50df 8ebe 33da d03e
000000c0: ea3b 473f 2c1b 3dc0 452a 90c0 c544 2ebe
000000d0: b667 7dbc 4feb aebd 4003 0dbe 23dd b03e

layers.0.bias f4 [8]
0.5585251 0.20295683 -0.03702166 0.13978013 -0.097008236 -0.12990184 -0.4629672 0.35051638
00000000: 80fb 0e3f ead3 4f3e 06a4 17bd 8622 0f3e
00000010: 41ac c6bd fd04 05be 090a edbe e276 b33e

layers.2.weight f4 [8, 8]
-0.20419796 0.26387852 -0.098906755 0.06494272 0.11630692 0.3216349 0.6831067 -0.0378728
0.29807878 0.35466564 -0.11887822 0.23109718 0.4853341 0.43181488 0.60501915 -0.2485094
0.4708822 -0.14027707 -0.3329092 -0.14887282 -0.3334446 -0.30523342 -0.10268856 0.9012301
0.08453617 -0.10195174 0.06294832 -0.19750048 -0.055592768 0.18725388 -0.46846303 0.6843934
-0.443681 -0.35924777 -0.48362914 -0.07747572 -0.09208174 0.27934 -0.23131046 -0.31152058
0.5304429 0.13856141 -0.18983309 -0.44111836 0.42826408 0.3563217 1.8821932 -0.4297671
0.10126992 0.03810533 -0.193459 0.2449163 0.3364715 0.4071391 0.32508337 -0.22969767
-0.43316606 0.032208912 -0.17352499 -0.049958542 0.5681466 0.4649622 2.0386415 -0.5767729
00000000: 4519 51be 161b 873e a08f cabd b000 853d
00000010: 5332 ee3d 54ad a43e 15e0 2e3f 8220 1bbd
00000020: c89d 983e bc96 b53e 6d76 f3bd bda4 6c3e
00000030: b67d f83e d716 dd3e 89e2 1a3f 4079 7ebe
00000040: 7917 f13e cba4 0fbe 1373 aabe 1e72 18be
00000050: 40b9 aabe 8e47 9cbe 614e d2bd 04b7 663f
00000060: 4d21 ad3d 13cc d0bd 0ceb 803d 913d 4abe
00000070: 3eb5 63bd 7bbf 3f3e 63da efbe 6834 2f3f
00000080: 282a e3be 53ef b7be 3d9e f7be 97ab 9ebd
00000090: 5a95 bcbd a705 8f3e a6dc 6cbe a07f 9fbe
000000a0: 1bcb 073f 0be3 0d3e 9b63 42be 44da e1be
000000b0: 6e45 db3e cc6f b63e b5eb f03f 6f0a dcbe
000000c0: 9b66 cf3d 5614 1c3d 1e1a 46be 57cb 7a3e
000000d0: fe45 ac3e 8974 d03e 5471 a63e de35 6bbe
000000e0: f1c7 ddbe 7eed 033d 89b0 31be 54a1 4cbd
000000f0: 0e72 113f 870f ee3e 1a79 0240 64a7 13bf

layers.2.bias f4 [8]
0.27943006 -0.12510203 0.39962485 0.08023534 0.13080415 -0.20671174 0.3695256 -0.019688608
00000000: 7511 8f3e bf1a 00be a19b cc3e 6d52 a43d
00000010: 86f1 053e 3eac 53be 7632 bd3e 014a a1bc

layers.4.weight f4 [1, 8]
0.43021652 0.6115055 -0.8563114 -0.5204339 0.106595166 1.2220448 0.40671796 0.96716815
00000000: 5745 dc3e a08b 1c3f 3937 5bbf 283b 05bf
00000010: 914e da3d f76b 9c3f 563d d03e 5598 773f
